parameter/best_module_20231012_Test_Model_v0_1.pth (torch, 4731 bytes, 7 tensors)

inc.0.weight f4 [6, 1, 3, 3]
0.025975177 0.11094568 -0.24459295 -0.31340337 0.28043953 0.16482553 -0.1871442 0.10307003
-0.22085775 0.032267455 -0.2715716 0.30113888 -0.042665225 0.07017919 -0.33071342 0.12896633
-0.15074474 0.1238913 0.0048429905 0.09152935 0.2638919 -0.21135217 0.10546119 -0.19304515
0.21127358 -0.086300604 0.079392 0.19615993 -0.15205699 -0.029329285 -0.04759189 -0.25348282
0.021644324 -0.0020924807 0.063299045 0.086860076 -0.06523607 -0.2129664 0.2728255 0.13825406
-0.09720844 -0.0631288 0.24546975 0.26896834 0.20832483 -0.13969165 0.09616709 0.23051609
0.09692414 -0.108868614 -0.2505385 -0.30962768 0.11949918 -0.24539511
00000000: e5c9 d43c 7d37 e33d 9376 7abe 6876 a0be
00000010: c595 8f3e 06c8 283e bba2 3fbe 6116 d33d
00000020: 8928 62be e12a 043d 6f0b 8bbe e02e 9a3e
00000030: bbc1 2ebd 1bba 8f3d 4553 a9be c00f 043e
00000040: d45c 1abe b9ba fd3d f3b1 9e3b bd73 bb3d
00000050: d71c 873e b46c 58be 09fc d73d a1ad 45be
00000060: 1a58 583e 5fbe b0bd 4698 a23d 26de 483e
00000070: d4b4 1bbe f843 f0bc b7ef 42bd 80c8 81be
00000080: 704f b13c 0022 09bb eea2 813d b2e3 b13d
00000090: 7d9a 85bd dd13 5abe c9af 8b3e 7992 0d3e
000000a0: 3815 c7bd ac49 81bd 6c5c 7b3e 38b6 893e
000000b0: 1b53 553e 540b 0fbe 40f3 c43d 690c 6c3e
000000c0: 2a80 c63d 82f6 debd 9546 80be 8587 9ebe
000000d0: fcbb f43d db48 7bbe

inc.0.bias f4 [6]
0.16362745 0.23070766 0.30877522 -0.05503972 0.28398037 -0.17995739
00000000: f48d 273e a13e 6c3e c917 9e3e 5471 61bd
00000010: e065 913e c046 38be

inc.1.weight f4 [6]
0.9955806 0.99761385 0.99478537 1.0006304 1.0007608 0.99991715
00000000: 5fde 7e3f 9f63 7f3f 41aa 7e3f a814 803f
00000010: ee18 803f 92fa 7f3f

inc.1.bias f4 [6]
-0.0037345956 -0.00093508157 -0.0018908156 0.0028193449 0.0018961723 0.0022336422
00000000: 1ec0 74bb 4320 75ba 3ed5 f7ba c2c4 383b
00000010: fc88 f83a 4c62 123b

inc.1.running_mean f4 [6]
0.031599395 0.08541822 0.1893369 -0.04615541 0.24987406 -0.16964982
00000000: 5e6e 013d bfef ae3d 88e1 413e 750d 3dbd
00000010: fcde 7f3e afb8 2dbe

inc.1.running_var f4 [6]
0.53846085 0.5332971 0.53827405 0.5329479 0.5785722 0.55668265
00000000: 92d8 093f 2986 083f 54cc 093f 466f 083f
00000010: 4f1d 143f c182 0e3f

inc.3.weight f4 [1, 6, 3, 3]
0.09846201 0.11201011 -0.00020353426 -0.037085444 -0.1215082 -0.13743575 0.057044927 0.09332495
-0.039978653 0.11092292 -0.10194421 0.021142673 -0.14658765 -0.012872371 0.058943413 0.019381875
0.08500605 -0.12950508 -0.071071334 0.10813624 0.043148093 0.031050526 0.046109706 -0.0144456485
0.09082538 0.07676125 -0.06465364 0.032602772 0.11033972 -0.058837943 -0.13005893 0.03838977
-0.036752947 -0.14737839 -0.008633717 -0.14881434 0.15763946 0.1376232 0.15551122 0.007833713
-0.082804985 0.14953518 0.032427512 -0.032608554 -0.035326228 -0.123104304 -0.14312181 0.019434633
-0.14312133 0.117340095 -0.12692507 -0.059192736 0.029500794 0.10168657
00000000: 73a6 c93d 8e65 e53d d06b 55b9 e8e6 17bd
00000010: 4bd9 f8bd f5bb 0cbe f1a7 693d 2721 bf3d
00000020: a8c0 23bd 8e2b e33d 20c8 d0bd 6633 ad3c
00000030: 131b 16be a3e6 52bc a66e 713d bdc6 9e3c
00000040: a717 ae3d fb9c 04be d98d 91bd 8876 dd3d
00000050: 0ebc 303d ac5d fe3c 88dd 3c3d 71ad 6cbc
00000060: a802 ba3d 0135 9d3d 2169 84bd 7c8a 053d
00000070: cbf9 e13d 0e00 71bd 2b2e 05be 973e 1d3d
00000080: 428a 16bd 5cea 16be 6f74 0dbc c962 18be
00000090: 3d6c 213e 19ed 0c3e 553e 1f3e f958 003c
000000a0: a995 a9bd c01f 193e b6d2 043d 8c90 05bd
000000b0: 3cb2 10bd 1c1e fcbd 868e 12be 6135 9f3c
000000c0: 668e 12be 0150 f03d a5f8 01be 1574 72bd
000000d0: a6ab f13c 0c41 d03d
