parameter/best_module_20231013_Test_Model_v0_1.pth (torch, 4731 bytes, 7 tensors)

inc.0.weight f4 [6, 1, 3, 3]
0.008576524 -0.28075442 -0.03577561 -0.30404705 0.113584876 0.24014002 0.065403245 0.09886661
-0.1675036 0.28165904 -0.17546469 -0.10037367 0.32721573 0.11037675 0.14502016 -0.23984104
-0.07330062 -0.36131212 -0.12828232 0.1923132 -0.30750915 -0.24923253 -0.01631051 -0.23116414
-0.11691956 -0.099731125 -0.15383668 0.20353094 0.11200939 -0.118520975 0.21215846 -0.30590338
0.08746294 0.28753155 -0.13820985 -0.26381373 -0.2175257 -0.51052743 -0.18776926 -0.2920566
-0.3561382 -0.118550844 -0.37323782 -0.62111163 -0.035512984 0.25249946 0.1223728 -0.1655581
-0.0105627095 -0.23704271 -0.22547838 0.26126158 0.11143431 0.0689348
00000000: 8d84 0c3c 0bbf 8fbe 7289 12bd 0eac 9bbe
00000010: 309f e83d 44e7 753e 23f2 853d 947a ca3d
00000020: 1086 2bbe 9d35 903e 04ad 33be b690 cdbd
00000030: d288 a73e 350d e23d 2a80 143e e498 75be
00000040: a31e 96bd e7fd b8be 715c 03be c0ed 443e
00000050: d771 9dbe d036 7fbe 9e9d 85bc 4bb6 6cbe
00000060: 8673 efbd d53f ccbd 5d87 1dbe 6a6a 503e
00000070: 2e65 e53d 20bb f2bd 1140 593e 5e9f 9cbe
00000080: c51f b33d 5637 933e e286 0dbe 9812 87be
00000090: 0fbf 5ebe edb1 02bf 9646 40be 7188 95be
000000a0: bf57 b6be c9ca f2bd 0719 bfbe 2c01 1fbf
000000b0: 1076 11bd 9c47 813e 979e fa3d 1088 29be
000000c0: 370f 2dbc 53bb 72be cee3 66be 14c4 853e
000000d0: ac37 e43d b02d 8d3d

inc.0.bias f4 [6]
-0.2779738 -0.3096557 0.18462604 0.1656255 -0.0050280094 -0.12070363
00000000: 9552 8ebe 318b 9ebe 9c0e 3d3e bb99 293e
00000010: 00c2 a4bb 7733 f7bd

inc.1.weight f4 [6]
0.98632675 1.0459489 0.99872476 0.98717266 0.9403041 0.9891933
00000000: e97f 7c3f a7e1 853f 6dac 7f3f 59b7 7c3f
00000010: c5b7 703f c63b 7d3f

inc.1.bias f4 [6]
-0.005235211 0.006608457 0.004090678 -0.006449357 -0.01174642 -0.00442458
00000000: 228c abbb c18b d83b 180b 863b 2155 d3bb
00000010: 0e74 40bc 11fc 90bb

inc.1.running_mean f4 [6]
-0.28567842 -0.28357774 -0.17563312 0.20207517 -0.56061226 -0.02204586
00000000: 7144 92be 1a31 91be 2bd9 33be cbec 4e3e
00000010: 4984 0fbf 8599 b4bc

inc.1.running_var f4 [6]
0.19238676 0.18973261 0.3968281 0.19625817 0.8968458 0.19793999
00000000: 0901 453e 4449 423e 0d2d cb3e e7f7 483e
00000010: b097 653f c8b0 4a3e

inc.3.weight f4 [1, 6, 3, 3]
-0.057358675 0.0645073 0.038808156 -0.10635478 0.0966828 -0.035332028 0.03968474 0.09788816
-0.03900854 -0.1656687 -0.20617892 -0.29983488 -0.07101314 -0.26947352 -0.1406284 -0.048205048
-0.012800972 -0.13927546 -0.036117084 0.07865635 0.16036257 0.04584913 0.03671961 0.06870563
0.12066914 0.14108695 -0.049124267 0.056792382 -0.023831332 -0.15696914 -0.11611378 -0.16626601
0.019565647 0.09207428 -0.15041958 0.045009248 -0.010240398 -0.13602835 -0.090305515 -0.014156891
-0.11902687 -0.03832501 -0.06093777 -0.050838847 -0.0538221 -0.03974876 -0.16705449 -0.0014895617
0.05108426 -0.10146461 0.008617646 -0.09936817 -0.045098342 0.046845797
00000000: eef0 6abd 671c 843d 4df5 1e3d 89d0 d9bd
00000010: a201 c63d 51b8 10bd 778c 223d 9679 c83d
00000020: 6bc7 1fbd 0ea5 29be 9120 53be f583 99be
00000030: 566f 91bd 6ff8 89be e400 10be a872 45bd
00000040: 2bbb 51bc 3a9e 0ebe 82ef 13bd 9516 a13d
00000050: 1636 243e 4ccc 3b3d 4d67 163d 8ab5 8c3d
00000060: 6221 f73d 1979 103e 8736 49bd 219f 683d
00000070: ed39 c3bc 85bc 20be 10cd edbd a341 2abe
00000080: 2348 a03c 7191 bc3d 9707 1abe 9e5b 383d
00000090: 58c7 27bc 044b 0bbe 19f2 b8bd 4ef2 67bc
000000a0: 5cc4 f3bd b0fa 1cbd e299 79bd 653c 50bd
000000b0: 9074 5cbd 99cf 22bd 5510 2bbe 663d c3ba
000000c0: bb3d 513d adcc cfbd 0731 0d3c 8a81 cbbd
000000d0: 0ab9 38bd 61e1 3f3d
